pytorch/002cnnNumberRelize/model/model.pkl (torch, 874484 bytes, 6 tensors)

linear1.weight f4 [256, 784]
00000000: fc45 f1bc 8ec7 48bc 1592 c73c 6e88 10bd
00000010: b761 ba3b c75c 07bd 5cc5 37bc 05e6 5abc
00000020: 5a25 a83c c0bb a1bb 67ad 0d3d b6c8 04bd
00000030: 4091 853c fcf8 2b3c 35c1 a0bc 6edf a43b
00000040: 1330 2dbb b830 6dbc 8f54 0e3d 5b2e 0bbd
00000050: 7c95 7fbc d1ae fc3c 01af d1ba 8e4e 8a3c
00000060: b386 c33c 15ed 88bc 7030 a73c 409a 113c
00000070: 55f8 88bc c00e 843c dc23 7d3b 4a15 d03a
00000080: 6a06 053d faa9 bfbc ce43 d8bc 356e 563c
00000090: ebd8 6f3c 2d65 f83c daf1 f03b 48de dbbc
000000a0: 7cc2 61bc d0e5 adba 3f99 9bba 2ff6 5dbc
000000b0: d476 f23c abef f9bc b5ed d73c 197e cd3c
000000c0: 2186 0bbd 74c1 e13b fa92 c5bc dcfe 9cb9
000000d0: bcee 303c d767 d63c fa32 883c 6a57 a73c
000000e0: b1c2 f4bc b861 dd3c 4ab7 b13b 8cbf 9b3c
000000f0: 759e 90bc 2b01 123d c696 f3bc d692 6ebc
00000100: e7d5 c0bc ef98 05bd 2c46 c73b 7052 0dbc
00000110: 8225 0ebd 22ae 3fbb c422 453c d4ad f53c
00000120: e016 05bd 7e43 f53c 528a 3ebc 5af7 a83c
00000130: 4344 debc 3477 dbbc d0ad e93a 4b5a 043d
00000140: d1c9 c03c a2ef 113d 7755 20bc b1e2 c8bc
00000150: 212d bdbc 23df 98bc 9300 e23c 2052 423c
00000160: ba56 103d 47f1 10bc e417 44bc 999a 533c
00000170: 7553 c8bb 189a 023d c695 80bc 4df3 d5bc
00000180: 03fb 98bc e87c e8bc 46aa 7abc 8483 7539
00000190: 5740 faba afc9 b43c 60da 193b a1fe babc
000001a0: 523d 653c 9802 7dbc 17de b3bb 470c d53c
000001b0: 8377 2ebc a674 9bbb 1e67 443b 13c3 33bb
000001c0: fad9 bbbc 3a27 9fbc c9bf c1bb ce3c febc
000001d0: 7219 b63c 86eb 833c 3290 54bc 8764 41bc
000001e0: 0342 ab3c 87ba 453c 8edb 4c3c 9dcb cbbb
000001f0: 26a8 0c3c 9371 78bc 4d03 f1bb e801 96bc
00000200: 2c06 17bd 8cd4 23bb 4e21 3abb 6043 963c
00000210: 1be2 0fbd 4d27 d23b 9d11 033c d913 e63c
00000220: 2f40 113c d8e8 1c3c d49b 0fbd 5845 e63c
00000230: b853 f8ba 8198 68bc 7a55 0fbd 0972 adbc
00000240: 3642 f4bc 05af 5cbc 96d4 61bc 9559 7539
00000250: a288 b33c 86fb 803b 73b5 b83c 85d0 11bd
00000260: cba0 66ba 119e 063d 4bc9 c9ba a1b6 943c
00000270: f812 13bd 84ad 8e3c 2bd6 a4bc 33cd 8ebc
00000280: a027 2fbd 22db 893c dbb9 a33a c3c5 ae3c
00000290: e458 7d3c 19ca abbc f3b0 c4bc a30d a2bb
000002a0: 41c2 73bc b81f 5d3b 4bd2 e5bc bb10 92ba
000002b0: 7552 033d 6def c93c b833 d73c f757 16bd
000002c0: ed60 04bd f031 023d 4b41 22bd 1ca4 8f3b
000002d0: a235 313d 3ad5 b13b a92a 133d 72dc 4b3c
000002e0: 25d4 cb3c 6f4c 9b3d 7b6a 7f3d 8b1f 033d
000002f0: f932 a33c 80e7 aebc 14fd b73b b10d ce3c
00000300: 7bf5 053c 3667 723c 1bfb 113d 417c 04bb
00000310: 0edb 6b3c 85bd f23c 3e71 fe3c 591d 913c
00000320: 6276 ce3c 8dac 2fbd f2fe e7bc e1dd 16bc
00000330: 064c b63b 9ea1 06bd e849 4b3a 5238 2d3d
00000340: 6b4a 47bc e84e ab3c f6e7 81bc 86df 243c
00000350: 994e 3c3d 9e04 053d 69b2 b03c 3c90 9b3c
00000360: b073 953c ef1d d83b 1693 89bc 33e2 00bd
00000370: b26b 95bc d74c 013d ec80 47bb 531b 003d
00000380: 2146 0bbd e92b 3f3c 4c22 fabb 3b77 423c
00000390: e7a7 babc e596 dabc 3107 24bd 647b 323c
000003a0: 4f8d f13c 134b a8bc 3a4d 4ebc 9def 9a3c
000003b0: 5f7c 003d f326 48bc d9b7 bcbb 77f1 de3b
000003c0: e01a 0c3c b8ac 0b3d e3dc 743d da96 863d
000003d0: 4f02 02bc 57a9 c7bb 704c fbbc 1e63 f3bb
000003e0: 3a25 b03c d8f2 92bb 2b0a 113c 1706 593c
000003f0: 734d 7ebc 2c73 ff3c 8fb6 6d3b 6829 a6bc
-0.029452316 -0.012254609 0.02436165 -0.03528636 0.005687918 -0.033047464 -0.011216488 -0.013360505
0.020525623 -0.0049357116 0.034589197 -0.032417975 0.016304612 0.010496374 -0.019623378 0.0050315177
-0.002642636 -0.0144769475 0.03474861 -0.033979755 -0.015599605 0.030845078 -0.001599759 0.01688316
0.02386794 -0.016714612 0.020408839 0.008886874 -0.016719976 0.016120315 0.003862611 0.0015875485
0.03247682 -0.02339648 -0.02639952 0.013087799 0.01463912 0.030321682 0.0073530497 -0.02683939
-0.013779279 -0.0013267342 -0.0011871232 -0.013547464 0.029597677 -0.03050979 0.026358465 0.025084542
-0.034063462 0.0068895165 -0.024117935 -0.00029944524 0.010799106 0.026172562 0.01662587 0.020427424
-0.029877992 0.027024135 0.005423461 0.019012235 -0.017653683 0.035645645 -0.02973498 -0.014561376
-0.023539497 -0.032616552 0.006081363 -0.008625612 -0.03470374 -0.0029248078 0.012032215 0.029990114
-0.03249252 0.02993941 -0.011629658 0.020625759 -0.02713216 -0.026790239 0.001782829 0.032312673
0.023533734 0.035628922 -0.009786001 -0.024522157 -0.023092808 -0.018661087 0.027588164 0.0118604
0.03523896 -0.0088465875 -0.011968587 0.012915277 -0.0061134645 0.031885237 -0.015696418 -0.026116991
-0.01867438 -0.028379872 -0.015299385 0.00023414014 -0.0019092661 0.022068826 0.002347611 -0.022826495
0.013991671 -0.015442513 -0.0054891217 0.02600683 -0.010648611 -0.00474413 0.002996869 -0.0027429506
-0.022931088 -0.019427884 -0.005912755 -0.031034853 0.02222893 0.016103517 -0.012973832 -0.011803753
0.0209055 0.012068397 0.012503518 -0.006219341 0.008585012 -0.015163797 -0.00735513 -0.018311456
-0.03687112 -0.0024998514 -0.0028401199 0.018342674 -0.03512774 0.0064133764 0.007999805 0.028085636
0.0088654 0.009576999 -0.03506072 0.028109238 -0.0018945849 -0.014196516 -0.034993626 -0.02117254
-0.029816728 -0.013469462 -0.013783595 0.00023398393 0.021915738 0.003936234 0.02254746 -0.03559925
-0.0008797764 0.032865588 -0.0015395073 0.01815349 -0.035906762 0.017416723 -0.020121654 -0.017431831
-0.0427624 0.016828123 0.0012491302 0.021334535 0.015463088 -0.020970391 -0.024010157 -0.0049454733
-0.014877857 0.003374083 -0.028054377 -0.0011143902 0.03206106 0.0246503 0.026269779 -0.036704984
-0.032318998 0.031785905 -0.03961305 0.004383577 0.04326404 0.00542703 0.035929356 0.012442695
0.024881432 0.07582938 0.062357407 0.032012504 0.019921767 -0.021350622 0.005614886 0.025153013
0.008176203 0.014795115 0.035639863 -0.0020215663 0.014395488 0.029631386 0.031059857 0.01771419
0.025202934 -0.042889167 -0.02831981 -0.0092081735 0.005563262 -0.032868974 0.00077548483 0.04229004
-0.012163739 0.020911649 -0.015857678 0.010063058 0.045973394 0.032475106 0.021569448 0.018989675
0.01824364 0.0065953652 -0.016793769 -0.03146572 -0.01823983 0.03156742 -0.0030441834 0.03127606
-0.034002427 0.011668184 -0.007633483 0.011869247 -0.02278514 -0.02668328 -0.04004592 0.010893676
0.029486327 -0.02054361 -0.012591654 0.018913085 0.03136861 -0.0122163175 -0.005759221 0.006803687
0.008551329 0.034100264 0.059780966 0.065717414 -0.007935121 -0.006093185 -0.030676097 -0.007427587
0.021502126 -0.0044845156 0.008852522 0.013246081 -0.015521395 0.031182848 0.0036272143 -0.020283416

linear1.bias f4 [256]
00000000: 9b33 053c c267 9cbe af08 37bd af66 2fbd
00000010: 52af 0a3d 9b2c 323d b46e 20bd f9a4 4abd
00000020: b336 f03d 1955 c1bd 6be9 d53c 956c 4ebd
00000030: 6767 cb3e 60ef 3cbd 9825 18be 2ada b6bd
00000040: 8243 6cbd 196b 24be 6a8c 11bc b3c3 83bc
00000050: 3071 58bd 3f25 6ebd 925c b3bd 6b10 3cbe
00000060: 8884 a2bd 879c 183d 6e99 1e3e 5572 3e3c
00000070: 6246 c0bd cb6c 0cbc 4def 2f3d 0f5d 6cbd
00000080: f63e d93a b766 98be 7ecd 8dbd 6ec3 19be
00000090: de0a 103d 4b75 7cbc 8c3f 18bd e29a b5bd
000000a0: 3db2 173c 39c0 6dbd b407 e3bd 7667 cfbd
000000b0: 1bad 60bd 06ad 25bd 6602 63bd afef aa3d
000000c0: 2c36 50be 7d47 45be 1d1a 823c 7e7a fa3b
000000d0: 9c69 02be cd44 b4bc 65ba 5a3d cc0e 9cbd
000000e0: c0ee b1bb 6a74 843e 4f31 45be 2bfb a93d
000000f0: 9e3f 98be 58aa 5dbe e4da bebd 7477 3bb9
00000100: bc9f 3c3b 90a1 b6bd ad4c 22bd 6687 d03d
00000110: 31a0 da3c b92d 80bd 571b 12be ae9c 933c
00000120: 25fc 8dbc 9e09 e0bd 611f 61be b482 35bd
00000130: a19d a3bc 3919 b3bd ce7c 9bbd 278d cabd
00000140: afa8 10be 4ee4 21bd 2647 b83c 2cb3 04bd
00000150: 9c5c 50bd cdd0 11bd e26a 39bc e69f 54bd
00000160: 098b b9bc 5620 4bbd 5d5e f83c a472 613d
00000170: 935d 57bd 1bc8 023e 3dae 583d 2e01 2fbe
00000180: 6704 bfbd 36f8 c6bc 50c6 b83c bd17 67bd
00000190: fd2a 21be 86ca 87be 5f79 153e efff 8e3e
000001a0: 26a8 e3bc 5792 533e 5796 173d 9122 68bd
000001b0: 790a ea3c fe64 2dbd fbd4 923c f2bb 92bd
000001c0: e57b 95bd c5be 5abd ef4b 853e 0426 943e
000001d0: a601 903d a1e6 f43d 55a1 63be 9cbd 203e
000001e0: 42a3 aebd 3fef 013b 652d f7bb 040f da3d
000001f0: 738d adba 2546 20bb d7d5 02bd 4210 8bbe
00000200: 672a 3fbe c9fa 7e3d db9c 89bd cb9a 56ba
00000210: f73c 55be a718 9dbd 8b0a 13bc e32a 1d3b
00000220: 5a4d 353a e05b 17bd a554 63bc e653 9ebd
00000230: 0e23 17be fe55 e5bc 6894 19bd 77cc 0d3f
00000240: e9c3 20be ea29 dfbc b59b 9e3d 5719 753c
00000250: 1da1 523c 7d7e ad3e 3d0f 90bc 5a16 53be
00000260: 0d00 54be 1bdb 61be 1c73 903c 438b 1dbd
00000270: 3dba b5bc 6bcb b6be 6cf2 17be 9a83 c9bc
00000280: eea2 85bb b53a cfbd 2ef5 cebb edb1 49be
00000290: 3158 673c d125 7bbe cc24 82bc ea83 38bd
000002a0: 1c1e e43d ca8f 59be e15d 0d3b 7a7a 76bd
000002b0: aaf7 03bd c78e 7cbd 11d3 b1bc bde5 693d
000002c0: 922c 4ebd 0e58 26bc bd96 1d3b 3ad6 cebd
000002d0: 8fb0 1abe 6f90 18be eac0 5abe 79e8 47be
000002e0: b9fb d1be 3f6c 12bd 10f5 f2bc bd1e adbe
000002f0: e074 f1bc 5b51 6f3e 8074 72bb 13f0 2abe
00000300: c69c c1bd 4cb3 1abd 8efd 99be 5db9 303c
00000310: 238e 3abc 22f6 94bd b9f6 52be d9ad 123a
00000320: 2078 653e e258 96bd 5271 c4be 9125 0cbe
00000330: 2764 f53b 4c3d 64be 35e0 5b3e 51cb afb9
00000340: a0ad 3fbe bfba 023d b0d1 96bc ddb2 99bc
00000350: ad87 ee3a 50ed d23e c73a 1d3c 5a30 38bd
00000360: 9fe0 5dbd e512 babe 8c82 173c fb5f 11bd
00000370: aa88 4b3d 2311 b9bb 0df1 c9bc 4e3f 063c
00000380: bf72 e2bc 8a76 4b3e a651 19be 9cda 553b
00000390: 6d49 22bc 9dc2 3d3d fbc2 cb3c 636f 4ebd
000003a0: bd0c 343d bc19 1dbe a532 25be 2e12 cebd
000003b0: d4bc 113e 7d24 443d bf11 f7bc 4364 fa3c
000003c0: 09d4 dfbd c978 88bd 2f3c 13bd 1c4b b5bc
000003d0: 5499 88bc d23f 2dbd ce2d 1fbd f531 8bbe
000003e0: 7482 40bb f90c 11be b2ae d2bd 48b6 b5bd
000003f0: d4d3 a0be b12d a6be b55e 55bd 9096 7cbc
0.0081299795 -0.3054791 -0.044686016 -0.042822536 0.033858605 0.04349957 -0.039168075 -0.049473736
0.11729183 -0.09440059 0.026112279 -0.05039652 0.39727327 -0.046126723 -0.14858091 -0.0892833
-0.057681568 -0.1605648 -0.008883575 -0.016084528 -0.05284232 -0.05814099 -0.08757891 -0.18365638
-0.079354346 0.03725865 0.15488216 0.011623939 -0.093884245 -0.00857086 0.042952824 -0.057705935
0.001657455 -0.29765865 -0.0692396 -0.15015957 0.035166614 -0.015408824 -0.037169978 -0.08867432
0.009258804 -0.058044646 -0.11085454 -0.101271555 -0.054852586 -0.04044821 -0.05542221 0.08346497
-0.20333165 -0.19265552 0.015881592 0.0076439967 -0.127356 -0.022005463 0.053400416 -0.0762001
-0.0054300725 0.25870067 -0.19257091 0.082998596 -0.29736036 -0.21647012 -0.09319094 -0.0001787821
0.0028781733 -0.08917534 -0.039623905 0.10182075 0.026687713 -0.06258721 -0.14268242 0.018019047
-0.017332146 -0.10939334 -0.21984626 -0.0443141 -0.019972624 -0.08745045 -0.07592164 -0.09890204
-0.14126848 -0.03952437 0.022494864 -0.032397434 -0.05086957 -0.03559952 -0.011316987 -0.051910304
-0.022649305 -0.049591385 0.030318433 0.05504097 -0.052579474 0.12771647 0.05290054 -0.17090294
-0.093270116 -0.024288278 0.0225555 -0.056419123 -0.15739055 -0.265217 0.1459708 0.27929637
-0.02779014 0.20661293 0.03700861 -0.05667359 0.028569447 -0.04233264 0.017923823 -0.07164754
-0.07299022 -0.05340459 0.26034495 0.28935254 0.070315644 0.119580515 -0.22229512 0.1569733
-0.08527233 0.001982644 -0.0075432532 0.10647395 -0.0013241008 -0.0024455872 -0.031942215 -0.2716084
-0.18668519 0.062250886 -0.06719371 -0.0008186518 -0.20824037 -0.07670718 -0.008974682 0.0023981861
0.00069161283 -0.036952853 -0.013875161 -0.07730846 -0.14759466 -0.027995106 -0.037495047 0.55390114
-0.15699734 -0.027241666 0.077445425 0.014959655 0.012855795 0.33885565 -0.017585391 -0.20613995
-0.20703144 -0.22056238 0.017633013 -0.03846289 -0.022183532 -0.3570207 -0.1483857 -0.024598885
-0.0040782606 -0.10118619 -0.006315849 -0.1969678 0.014120148 -0.24526145 -0.015886687 -0.045047678
0.111385554 -0.21246257 0.0021570849 -0.060175397 -0.032218613 -0.0616596 -0.02170709 0.05710386
-0.050335474 -0.01015283 0.0024046146 -0.10099454 -0.15106414 -0.14898847 -0.21362653 -0.19522275
-0.41012362 -0.035747763 -0.02965787 -0.33812514 -0.029474676 0.23370878 -0.003699571 -0.16693144
-0.0945373 -0.037768647 -0.3007626 0.010786382 -0.011386427 -0.072735086 -0.2060193 0.00055953633
0.22409105 -0.07341172 -0.38367707 -0.13686205 0.0074887457 -0.22289008 0.21472247 -0.00033530084
-0.18718576 0.031916376 -0.018410534 -0.018762046 0.0018198394 0.4119668 0.009596533 -0.044967987
-0.054169293 -0.3634254 0.009247433 -0.035491925 0.04969088 -0.005647795 -0.024651075 0.008193804
-0.027642606 0.19869438 -0.14972553 0.0032631522 -0.009905201 0.046328176 0.024873247 -0.050399195
0.04395746 -0.15341848 -0.161326 -0.10062061 0.14232188 0.04788636 -0.03015983 0.030565387
-0.10929114 -0.06663663 -0.035946067 -0.022130542 -0.016674675 -0.042297192 -0.038862042 -0.27186552
-0.002937463 -0.14165105 -0.10287227 -0.08872658 -0.31411612 -0.32456735 -0.052092273 -0.015416756

linear2.weight f4 [64, 256]
00000000: 692a 273b a6cd 25bd a97f 91bd c86e 613e
00000010: 8bb4 553c 9027 71bd 2550 863d 7c3d 4eba
00000020: d39f acbe 4518 b73d 2d57 a1bd c1ab a83c
00000030: d325 eb3d 07ae f33d 37f8 a73d d8f5 123d
00000040: 97bc 62bd e54e adbe 721f 653d 10cf 4abd
00000050: ed62 06be f56a 3f3d 37cf c03b 723f 9b3e
00000060: 2e08 b6bc 745f 86bd 9777 96be 56f4 ae3c
00000070: 6de8 963e 80a1 1abd c062 973e a135 d93d
00000080: 4e25 963d b969 2f3e 55ac 23bd cea0 763d
00000090: 1470 523e 858f b4bd b3a5 1d3d 0470 7c3c
000000a0: d8e8 7dbd 39a2 b6bd e4b2 363d 79de 58bd
000000b0: b98b 223d af61 843d 887a 5cbd 126f c73e
000000c0: f59f 5bbd 49bf 35be 73df 7a3d 9741 94bc
000000d0: 33bd cbbd 2586 01be 3361 76bc 247d 5a3d
000000e0: a296 f83c 405a 6fbe 29a0 23be 077f f8bb
000000f0: 6e84 21be bf24 573d 2d12 91bd 1a76 51be
00000100: ec0d e63c 32a7 86bd 9a7c e33c f2fc 8abd
00000110: 3f3b 863c e52e d33c 9ede 35be 7c40 80bc
00000120: d208 0b3c 25ba 85bd d79c 7cbe 1d33 d3be
00000130: 726f 8e3a dc9e bebc e7d9 a73d aec6 8bbd
00000140: cf23 09bf 6008 753d 685f 58bd 1e44 12bb
00000150: a7b1 65bc c7a7 533c ada2 abbe 68e3 a03d
00000160: 9266 b3bc 3e20 cc3c 8597 523e 381b 1abd
00000170: f655 2f3d 27aa cbbc c4cd a63c c9ed 2cbc
00000180: 7188 7fbe 4747 31bb 5a1c 0c3e 53b1 d13d
00000190: 28b2 91bd c60c 243b cabd 2c3d cc7e 413e
000001a0: 1b19 c2bd 8315 363e d345 bbbd f9ea b7be
000001b0: b101 d83c 971f 443d 43dc dc3c eefc c8bd
000001c0: 0cd0 8dbd de2a 1a3d 01ac a7bd 8b52 22bd
000001d0: 83f7 2f3b 5a31 8b3d c4b9 0ebd 3143 cebe
000001e0: 3237 db3c 692d 26bc f1f4 86bd ef77 c1bd
000001f0: 0f8d d83d 1368 0dbe 224d 423c fccd ddbd
00000200: 724a 613e a9e7 efbd 78d5 6e3d 8ecc 8b3c
00000210: fad2 d03d 1498 15be c31c 99bd 37ff fbbd
00000220: b500 873e 33fd 84bc da01 b2ba a247 263e
00000230: 30a9 653d ebbe dabd 25e1 7b3d c225 893d
00000240: c06b bdbe 30ae 313c 2201 be3d 76c8 8dbb
00000250: e120 c3be efe4 f2be 0b56 463d ceac 9cbd
00000260: e4df 423e 8cab ac3d 73cf 29be 34f7 693d
00000270: f787 1f3d 2594 383e e7a5 243e 96a5 5fbd
00000280: 0122 50be d2c2 2b3c 5f18 adbd d88d 943e
00000290: 5b0b d5be 71f6 473e eb21 843d 6a36 4239
000002a0: 11ec a63d b227 20be 4dbb 82bd eefb 083e
000002b0: fec8 fdbc c76e 263b 7ba6 493d aeca 84bd
000002c0: 2e20 283e 4540 243e 5439 cabc 7bc4 483d
000002d0: 94be 91bd 6ba1 b8bd cd43 de3a a21b 953e
000002e0: 51ee 1c3d 0057 8cbe 37a5 6ebd d65b ebbd
000002f0: 5fae 40bd 59db 9d3b f8f5 72be 00de bc3d
00000300: 246b 733d 1ff8 413e 32d7 96be d9c8 363c
00000310: 3200 b1bc ae6f 4dbd b860 77be 42d3 ccbd
00000320: 36cd 2fbd 078e 053d 3ea1 84bd 1e3c 85be
00000330: ea4d be3c b34e 053e f9e8 37be a25d 5ebd
00000340: b7f1 563e f4e8 99bc 1ef9 953b 1473 abbc
00000350: 76bc 89be 8e30 fabe 5a70 f0bd 249a 82bc
00000360: 1331 273d 4a9f 07be c7b0 cebd 24d9 dbbd
00000370: 533e a8be fbd9 c13d b387 9e3d 274c 4e3d
00000380: 8a15 9cbc 3494 8d3d e4c7 3abd 2400 0abc
00000390: c343 42bc 30a2 0d3d 81c2 e2be 51b7 17bd
000003a0: 0120 95bd 9d75 723d 8109 01be c277 d83d
000003b0: 84f0 94be a93e a9be 49c0 3ebd cff1 2ebe
000003c0: d178 0f3e a4de 01bd 191e 5d3d 3763 b9bc
000003d0: 207f 93bd 8d74 da3c 8e7d 3c3e 4d4b b43e
000003e0: 3fd9 91be 447d b23c 2bfa 953d e28b 18be
000003f0: a040 f0b9 8d10 7d3e 9b6b babc a02a 913d
0.0025507456 -0.040479325 -0.07104427 0.22014916 0.013043533 -0.05887562 0.06558255 -0.0007867438
-0.33715686 0.08940176 -0.078779556 0.020589711 0.11481824 0.118984275 0.0820164 0.035878986
-0.055355635 -0.33849254 0.05593819 -0.049513876 -0.13123675 0.04673286 0.005884077 0.30321842
-0.022220697 -0.06561175 -0.29388115 0.021356743 0.29474202 -0.037751675 0.29567528 0.10605932
0.07331334 0.17130174 -0.03995927 0.06021195 0.20550567 -0.08816437 0.0384881 0.015407566
-0.061989635 -0.0891766 0.044604197 -0.05294654 0.03968403 0.06463944 -0.053827792 0.38951927
-0.053619344 -0.17748751 0.061248254 -0.018097682 -0.09948196 -0.12648828 -0.015037823 0.053342
0.030345265 -0.23374271 -0.15979065 -0.007583502 -0.15773174 0.05252528 -0.07083545 -0.20455208
0.02808281 -0.06574859 0.027769376 -0.06786527 0.016385673 0.025779197 -0.17760703 -0.015655749
0.00848599 -0.06529645 -0.24669205 -0.41249934 0.0010866954 -0.02326911 0.081958584 -0.068250045
-0.53570265 0.05982244 -0.05282536 -0.0022318433 -0.014019406 0.012918419 -0.3352255 0.07855874
-0.021899495 0.024917718 0.20565613 -0.037623614 0.042806588 -0.024861408 0.020361789 -0.010554739
-0.24954392 -0.0027050541 0.1368269 0.102389 -0.07114059 0.0025032028 0.042173184 0.18896025
-0.09477445 0.17781644 -0.09144177 -0.35921457 0.026367994 0.04788169 0.026960498 -0.098138675
-0.069244474 0.037638538 -0.08187104 -0.0396295 0.002685041 0.067965224 -0.03484513 -0.40285638
0.026759718 -0.010142663 -0.065896876 -0.09446704 0.1057378 -0.13809232 0.01185921 -0.10830304
0.22001055 -0.117141075 0.05830905 0.017065313 0.101964906 -0.14608794 -0.07476189 -0.12304538
0.26367727 -0.016234016 -0.0013580874 0.16238263 0.056069553 -0.10680946 0.06149401 0.06696655
-0.3699627 0.010844752 0.0927756 -0.0043268753 -0.38111022 -0.47440287 0.0484219 -0.076501474
0.1903072 0.084311575 -0.16583042 0.057120517 0.038948026 0.18025263 0.16078912 -0.054601274
-0.20325471 0.0104834605 -0.08451914 0.29014468 -0.41610226 0.19527604 0.06451782 0.00018521553
0.08150495 -0.15640143 -0.06383381 0.13377354 -0.03097963 0.0025395618 0.049231034 -0.064839706
0.16418526 0.16040142 -0.02468554 0.049015503 -0.07116428 -0.09015163 0.0016957462 0.29122645
0.038313214 -0.27410126 -0.05826303 -0.11492126 -0.047041293 0.004817408 -0.23726642 0.09222031
0.05942835 0.18942307 -0.29461056 0.011156284 -0.021606538 -0.050155334 -0.24157989 -0.10001232
-0.042920314 0.03260615 -0.06476067 -0.26022428 0.023230512 0.13018303 -0.17959966 -0.054288514
0.20990644 -0.018787839 0.004576816 -0.020928897 -0.26901597 -0.4886517 -0.11740179 -0.01594264
0.040818285 -0.13244358 -0.10092311 -0.10734776 -0.3286005 0.094654046 0.07740726 0.050365593
-0.01905324 0.06913033 -0.045600787 -0.008422885 -0.011856976 0.034578502 -0.4428902 -0.03704006
-0.07281495 0.059194196 -0.12601282 0.10569717 -0.2908975 -0.33055618 -0.046570096 -0.1708443
0.14010932 -0.031706467 0.05398378 -0.022630317 -0.072019815 0.026666904 0.1840727 0.352137
-0.28486058 0.021788247 0.073231064 -0.14897111 -0.00045824517 0.24713345 -0.022756388 0.07088208

linear2.bias f4 [64]
00000000: 5fcd dd3e 3238 e53c 5a0f 913e 3767 30bd
00000010: 0464 443e 56cc 163f 31a0 2ebd 618e b33d
00000020: a6b4 56bd 961d 01be 13d4 0f3f a92b 323e
00000030: 7fe2 74be 492b 23be c978 973f cf6b 3bbd
00000040: 65cc 053f 5e99 d8bd 4ad4 27be 4863 df3d
00000050: 3bdf 94be 14db 2cbe b3a7 cebd a38a 0d3e
00000060: bf6a 1a3c 0169 843b e736 aa3c 7a33 943e
00000070: 60e9 8cbd e985 e93e ba82 9d3e b8c3 24be
00000080: b446 a9bc 00d4 c43e 3a48 28bd badc 673f
00000090: 824a dfbc ea99 6a3e a5d1 853d 6229 09be
000000a0: f624 91be 157d 503f a364 87be 1b06 0dbd
000000b0: 971b c13e 1305 9fbd 59b2 90ba 769a 18bd
000000c0: 2322 2d3d 5e32 513e 58a2 fbbd 531c fbbd
000000d0: 0839 293f fe03 753d 985d 183d 31d7 51be
000000e0: 9ebe 78bd c956 e63e de32 9d3a defa b1be
000000f0: 2806 68be 92d7 f43e 8f1e 6e3f fce4 113f
0.43320748 0.027980898 0.28332025 -0.043067183 0.19178778 0.5890554 -0.04263324 0.08767391
-0.052418374 -0.12608942 0.56182975 0.17399468 -0.23914526 -0.1593448 1.1833736 -0.04575711
0.52265006 -0.105761275 -0.16389576 0.10907608 -0.2907656 -0.16880447 -0.1009058 0.13822417
0.009424864 0.0040408378 0.020778133 0.28945524 -0.0688045 0.45609978 0.307638 -0.16090286
-0.020663597 0.38442993 -0.041084506 0.90571177 -0.027257208 0.22910276 0.06534127 -0.13394693
-0.2834851 0.8144086 -0.26443967 -0.03442965 0.37716362 -0.0776464 -0.001103948 -0.03725668
0.042268883 0.2042937 -0.12286824 -0.12261262 0.6610265 0.05981826 0.037198633 -0.20492245
-0.06072866 0.44988087 0.0011993309 -0.3476171 -0.22658598 0.47820717 0.9301538 0.5699003

linear3.weight f4 [10, 64]
00000000: f636 253d 551c 383e 4caf 0b3f 7fb4 dabd
00000010: f3cd 1abe 13a1 babd fed7 f63d 1868 c0bb
00000020: 1e66 80bd fbb5 25bc cf2d 893e 556c 323f
00000030: b15d 84be b7a5 94bc 8a49 633e e98f 773c
00000040: 7c61 a8bd 1054 debd df94 7fbe 8a22 36be
00000050: f4a8 683d b817 3d3e 7df8 46bd 82b4 f3bd
00000060: 84cd 993e 171c 07be 148f 0abe 2691 fa3e
00000070: cb6a 40bb e687 9dbe 8e37 2d3e b394 62be
00000080: c528 e03d fc49 21be 79e2 03be 5aaf 3b3e
00000090: 9386 593e ed0c 6ebe 5490 0dbe 76da 923c
000000a0: e6f7 d9bd 43f8 61bd 48a3 98bc 285a 41bd
000000b0: 7de2 243d 5f00 da3d f4d0 05be 7465 12bd
000000c0: 972a 7d3f 4c7c 983e b694 25be 0708 2dbc
000000d0: 28ed 2f3d a91f 9939 fdcf 98bd 2eab 623e
000000e0: 120b 6d3e 4f5c 54be 97cc e23d 0d39 87be
000000f0: 2aa2 6ebe bfa1 f03e d362 813e 88a3 87bc
00000100: 9f87 4bbe fd3a bc3c e67a eb3c 96ba 743e
00000110: a4f5 e6bd 5880 f83d 883e 453d 1f69 45bd
00000120: 906b 71ba 2b6c 013e 242f 1f3f 2350 c6bd
00000130: e36f b43e 849d 383e 99f4 24bd dc82 09be
00000140: 17d7 453d 6b9f 473d 8cea eb3e 9aba 8abd
00000150: 4b4d d43e e6fb f03e 164e a63e fab1 073f
00000160: 3ba7 3ebe 658d e73e dbf3 8d3e e6c6 f4bd
00000170: 0943 ffbd f20f f73c 59d6 32be 036f c63b
00000180: 9508 9cbd 6a9e 35be ab83 98bd 66fe e03e
00000190: 2d16 1dbe 0175 a23e 1a2f 1a3e 7599 bf3e
000001a0: d80c 4b3e 594f e33d 9aec 413b 5cc8 0cbe
000001b0: 405a b5bd 465d 8e3d 1113 1d3f 4b0e 443e
000001c0: d1ec 38bd 2fc0 d93d 6bab 323e 033e 673d
000001d0: 9ff8 c5be df7a ea3e 5e8b 063d c1cb 3b3f
000001e0: e574 6bbe 7cff b1bd d6bc 8ebe c7f5 2b3f
000001f0: 325e 9c3d 2781 8abe a380 1b3f fa4f 723c
00000200: 8eca 3abc 31d3 8cbd 91a3 11be 34b7 533c
00000210: c73a 963e 6ee2 a3bc f302 963d 95e0 313d
00000220: fd40 ee3d d93d 8c3d 7582 17be f759 0cbe
00000230: fd9b e53d 1674 fa3d c6a5 28be 26bc 34be
00000240: c17a e4bc 802d ab3c 2b30 87be 0e5c db3e
00000250: a80e ffbd b1dc 41bd 406e c63d dbad 3f3e
00000260: 2f7b b3bd cb1f b9be 75f2 743c 077d fd3e
00000270: 203e f93d 8c67 5c3f ddf1 5c3e 07cb 6bbc
00000280: af33 0b3d ac17 b93d 9a45 443e 0e65 9e3e
00000290: f753 833e 09ca ed3d 42fd 5ebe da08 58be
000002a0: 7320 ea3e 3c2f 003d c037 47be c18a 1d3e
000002b0: b26b 7c3e dac7 af3c 2902 bc3d 5987 6b3e
000002c0: 9953 1fbd 47e9 81be ee1b 863d 8272 60bd
000002d0: 7202 f9bd e42d a13d 7b7a 183c 7eb1 e1bd
000002e0: 13e0 273f fcac da3d f8c3 023d 5671 e83e
000002f0: 0b8e 3a3e ba15 823e 2e79 da3c 6f6e bcbd
00000300: d725 b33e 6acf f1bd 4fe5 8cbd da90 283e
00000310: d5a3 a33e 0501 aa3e f2d5 0ebe dc3d 043f
00000320: 90e4 f63d af6e 16bd 8a94 2ebe 7131 9d3e
00000330: 2134 53be b32b 43be 41e3 4d3f 1dd2 a0bc
00000340: 94f8 59bc 5744 bb3d 7ad2 f1bd 9da6 d53e
00000350: 4616 5f3c 80df 203e 517a 34be 7bea 47bd
00000360: c148 68be d8f0 093f 6cd2 513e c36c 03be
00000370: df66 5c3c 0bfa e73e 8abe eb3d 865e f33e
00000380: e71a 47bd 13e2 88be 5e7e c3bd c0c6 043d
00000390: 2647 503e a560 5d3f 1307 c13d 041d 89be
000003a0: 3813 883e 8955 3a3e db52 ca3d 9de2 09be
000003b0: 9724 85bc bf45 0cbd 19fd f13e 106a 3b3e
000003c0: 2777 93be 0ed1 ccbd d8f4 09be 3bb4 96bc
000003d0: 3d40 cdbb 27f2 97be 5157 b9be 058b c2be
000003e0: 2167 a2be 1a42 233f 4bfe 253f f63f 5fbe
000003f0: c3ac c63e 9e56 2bbd cdda 91be 6e67 28be
0.040335618 0.17979558 0.54564357 -0.10678958 -0.15117626 -0.09112754 0.12052916 -0.005871784
-0.06269477 -0.010114188 0.26792762 0.6969655 -0.2585273 -0.018145425 0.22196022 0.015109994
-0.08221719 -0.108558774 -0.24959134 -0.17786613 0.05680175 0.18466079 -0.04857682 -0.118996635
0.30039608 -0.13194309 -0.13531142 0.48938864 -0.0029360529 -0.30767745 0.16915724 -0.22127037
0.10945276 -0.15750879 -0.12879361 0.1832861 0.21242742 -0.23247118 -0.13824588 0.017926436
-0.10642986 -0.0551684 -0.018632546 -0.04720512 0.04025506 0.10644602 -0.1306799 -0.035741284
0.9889311 0.2978233 -0.1617001 -0.010560996 0.04295078 0.00029206023 -0.074615456 0.22135612
0.23148754 -0.20738338 0.11074179 -0.26410714 -0.23304048 0.46998402 0.2527071 -0.01655747
-0.19875954 0.022977347 0.028745126 0.23899302 -0.11277321 0.12133855 0.048155338 -0.048195954
-0.00092094485 0.12638919 0.62181306 -0.096832536 0.35241613 0.18028837 -0.04027233 -0.13428825
0.04830083 0.048736017 0.46077383 -0.06773873 0.4146522 0.47067183 0.3248145 0.53005946
-0.18618481 0.45225063 0.2772511 -0.11951999 -0.12463958 0.03015897 -0.1746458 0.006055714
-0.076188244 -0.17736211 -0.07446989 0.4394409 -0.1534049 0.31729892 0.1505703 0.37421766
0.19829118 0.11099119 0.0029590488 -0.13748306 -0.088551044 0.06951384 0.6135722 0.19146077
-0.04514772 0.10632359 0.17448203 0.056455623 -0.38666245 0.45796868 0.032847755 0.7335778
-0.2299381 -0.08691308 -0.27878445 0.671719 0.07635154 -0.2705166 0.6074316 0.014789576
-0.011400832 -0.06876219 -0.14222552 0.012922097 0.2934172 -0.020005431 0.07324781 0.04342707
0.11633489 0.06847734 -0.14795859 -0.13706194 0.11211393 0.12229173 -0.16469488 -0.17649898
-0.027890565 0.02089572 -0.26403937 0.4284367 -0.12453967 -0.04732961 0.09688997 0.18718664
-0.0876373 -0.3615707 0.014950384 0.4950945 0.121700525 0.860955 0.21576639 -0.014391667
0.033984836 0.09037718 0.19167176 0.30936474 0.25649998 0.11610801 -0.21776298 -0.21097127
0.45727882 0.031295046 -0.1945486 0.15384962 0.24650458 0.021457601 0.091800995 0.2300085
-0.038898084 -0.2537329 0.06548296 -0.054796703 -0.121586695 0.07870081 0.009306545 -0.11020182
0.65576285 0.106775254 0.03192517 0.45398968 0.18218248 0.254072 0.026669111 -0.09200751
0.34989807 -0.11807139 -0.06879675 0.16461506 0.3196093 0.33203903 -0.13948801 0.5165689
0.120553136 -0.03672665 -0.1704885 0.30701783 -0.20625354 -0.19059639 0.80424887 -0.01963144
-0.013303895 0.09143894 -0.11807723 0.41728678 0.01361615 0.15710258 -0.17624785 -0.048807602
-0.22684003 0.53883123 0.20490426 -0.12834458 0.013452261 0.45307955 0.11510952 0.47533053
-0.04860964 -0.2673498 -0.09545587 0.032416105 0.20339641 0.8647559 0.094251774 -0.2677995
0.26577163 0.18196692 0.09879085 -0.13465352 -0.016252799 -0.034246203 0.4726341 0.18302178
-0.28801844 -0.100008115 -0.13472307 -0.018396487 -0.0062637613 -0.29676935 -0.3619943 -0.37996688
-0.31719306 0.6377274 0.64841145 -0.21801743 0.38803682 -0.04183065 -0.28487244 -0.16445705

linear3.bias f4 [10]
00000000: f79b e53e 504e e4be 5fc3 6b3f 9ba8 073f
00000010: 9faf dd3d 7fe2 323e 453a 73be 0291 e73d
00000020: 3504 ba3f 623e 263f
0.44845554 -0.44590998 0.9209499 0.52991647 0.10824513 0.17469214 -0.23752697 0.11306955
1.4532534 0.6493894
