pytorch/001numberRelize/model.pth (torch, 90280 bytes, 8 tensors)

conv1.weight f4 [10, 1, 5, 5]
000000 1a b9 20 3d a5 8a 6d be 74 c6 9a be 92 5b 80 be
       0.039239027 -0.2319742 -0.30229533 -0.25069863
000010 47 2b b2 be 87 09 47 3e 8b 3b 39 3c 55 42 89 bd
       -0.34798643 0.19437228 0.0113057 -0.06702105
000020 91 9e eb bd fa c3 23 be f2 e9 4d 3e 7b 45 a7 3e
       -0.115048535 -0.15992728 0.20108774 0.32670197
000030 47 ee c2 3e f7 34 4f 3e 83 7b 2f 3d 5d 8f b2 3a
       0.38072416 0.20235048 0.0428424 0.0013623048
000040 18 de 6d 3e bb 85 86 3e 0f f5 cf 3e 99 9d 6b 3e
       0.23229253 0.26273903 0.40616652 0.23009337
000050 18 a7 54 be 26 b2 87 be ad ae 7c be f0 5b 5b be
       -0.20766866 -0.26503104 -0.24676009 -0.2142179
000060 03 a2 e6 bc e0 0a 21 3d e2 19 78 3e c8 69 3d 3c
       -0.028153425 0.03931701 0.24228624 0.011560865
000070 af 64 df be c5 14 18 be 90 1a 24 3e f9 be d8 3e
       -0.43631503 -0.14851673 0.16025758 0.423332
000080 16 bd 7e 3d 42 ca d1 be b5 6c cd be 9a d9 b8 3d
       0.062192045 -0.40974623 -0.40122 0.09025879
000090 27 c9 01 3f 83 b5 ae bd 37 2a 33 be 89 2f a2 be
       0.5069756 -0.08530714 -0.17496572 -0.3167689
0000a0 18 75 a2 3e e7 b5 3b 3e e2 83 5f 3e 53 6e e3 bd
       0.3172996 0.18331109 0.21827653 -0.11105027
0000b0 fb 14 46 be 30 4a 0f 3e 0e 8e c2 3d 5a 5e 5d 3e
       -0.19343941 0.13993144 0.09499751 0.21618024
0000c0 fd 6b 48 bb 65 89 af 3c c6 d3 cb be d0 9b 89 be
       -0.0030581944 0.02142782 -0.39810008 -0.26876688
0000d0 64 7d 0a 3d 7c 16 b0 3c 55 9c 73 3e 0d b7 fc bd
       0.033810988 0.021495096 0.23790105 -0.12339602
0000e0 54 5c e7 bd af 69 c8 bb 0c ba 9a 3e 6d dc c5 3d
       -0.11296907 -0.006116114 0.30220068 0.096611835
0000f0 66 58 83 be ef 30 04 3e 2e e0 b7 3e 1e e4 ca 3e
       -0.2565338 0.12909292 0.35913223 0.39627165
000100 10 b6 1c be 6c e4 ff bc b7 a4 03 3e 7e e7 78 3e
       -0.15303826 -0.03123685 0.12855802 0.24307057
000110 86 d9 8c bd ee 4b 6c be 8b f7 0b 3e 29 b2 29 3c
       -0.06877427 -0.2307584 0.13668649 0.010357418
000120 0e 66 71 3d f1 5c ca bd e7 5a d9 bd c0 6f 28 3e
       0.058935218 -0.098810084 -0.10613041 0.16448879
000130 90 20 b1 3e 92 d6 a0 3e f6 97 f1 bb a2 d5 35 3e
       0.34595156 0.31413704 -0.0073728515 0.17757276
000140 b2 36 39 be 4f 83 5e bd ea 20 0f 3e 63 82 e1 3d
       -0.18087271 -0.054324444 0.139774 0.110111974
000150 6d 00 6f 3e de f3 2c be 1c 5b 47 be 87 c9 da 3d
       0.23340006 -0.16889903 -0.19468349 0.106829695
000160 82 a1 3c 3c fd 33 3c 3e 04 99 73 3d c2 ac 6b be
       0.011513116 0.18379207 0.0594721 -0.2301512
000170 e6 72 12 be ac 59 a2 bd 60 60 63 be 50 8c 3d bd
       -0.14301643 -0.0792726 -0.22204733 -0.04627639
000180 f8 c8 b7 3c ed 67 34 be ab 4c 8c be b3 2b 49 be
       0.022434697 -0.1761777 -0.27402243 -0.19645576
000190 4a cc a4 3e da 49 4a 3c 7c 73 6c 3d 22 59 9c 3d
       0.3218711 0.012346709 0.057727322 0.07634188
0001a0 3b 18 7a bd bc 7a 3b be 9b e1 4b 3e 2a 4f 8a 3c
       -0.061058264 -0.18308538 0.1991028 0.016883451
0001b0 e8 66 d5 3d fc ce 0a 3e 6a 99 fc bb 36 36 9b 3e
       0.104200184 0.13555521 -0.007708718 0.30314797
0001c0 ca 6a 94 3e d3 bd 3e be f7 56 a0 3d 5d 7f 07 3e
       0.28987724 -0.186271 0.07829087 0.13232179
0001d0 67 fb 8b 3e 91 0d 2a 3e 5e db e3 bd f4 9d e6 bd
       0.27340242 0.16606738 -0.11125825 -0.11260596
0001e0 9b e9 7e be da 56 d1 bd 52 92 e2 3d aa a5 02 be
       -0.24893801 -0.10221644 0.11063065 -0.12758508
0001f0 5f 33 07 3e fb 3e 61 be 1a 00 aa be 84 9b 3e be
       0.1320319 -0.21996681 -0.33203202 -0.18614012
000200 bc 08 19 3e 0d 4d af 3e 20 62 33 be 78 a1 89 3d
       0.14944738 0.34238473 -0.175179 0.06720251
000210 76 57 76 3e 5f eb a4 3e 8b 04 09 3e bb 85 33 3e
       0.24056801 0.32210824 0.1338064 0.17531483
000220 8d e3 31 3e dc 68 51 3d 96 f7 38 bd fe b0 2e be
       0.1737196 0.051125392 -0.04515799 -0.17059705
000230 90 02 9a bc 1f 7d 2d bd 69 97 58 be 06 d8 c7 3d
       -0.01880005 -0.042355653 -0.21151508 0.09758
000240 d8 90 18 3e 24 29 2a 3c ba 41 38 3d 2b 87 e9 3c
       0.14899004 0.010385785 0.044984557 0.028506836
000250 3b de 18 3e cf 3a 6d 3e 5f 9d 29 be 7b 23 99 3d
       0.14928524 0.23166965 -0.16563939 0.074774705
000260 16 06 ba bd 86 80 8f 3c ca 2d 60 be 97 61 76 be
       -0.09083192 0.01751734 -0.21892467 -0.24060665
000270 98 89 72 be 69 ab 0f be 8b 47 1b 3e a8 48 04 be
       -0.236853 -0.14030232 0.1516401 -0.12918341
000280 8c eb 7b be f4 90 41 3c ec b3 90 3d 2f 7f 12 3e
       -0.24601573 0.011814345 0.070655674 0.14306329
000290 1d 6f 29 be 28 d1 ce bc 7b 1c b1 bd 54 b7 96 3c
       -0.16546293 -0.025246218 -0.0864801 0.018397965
0002a0 0c ef cc bd db a2 2e bc 24 91 5e bd 0f 36 db 3d
       -0.10006532 -0.010658945 -0.054337636 0.1070367
0002b0 ea 7f 02 3e c4 99 5e 3e 24 73 c6 3e c5 df e5 3d
       0.12744108 0.21738344 0.3875972 0.11224321
0002c0 3d ed 43 3e e3 33 1d 3e 6c 64 de bd fc ee 7d 3e
       0.19133468 0.15351824 -0.10858998 0.24798197
0002d0 6e 51 8a be 8e e1 7a be 49 8d da be 2a 4a c8 be
       -0.2701525 -0.24500105 -0.42685917 -0.39119083
0002e0 74 03 c0 be 1a 7f f8 3d 87 6f 68 be 8d 99 9e be
       -0.37502635 0.12133618 -0.22698794 -0.30976525
0002f0 2d 3c 61 be ec 90 77 be 18 82 90 3e 9a a3 61 3e
       -0.21995611 -0.24176377 0.28224254 0.22035065
000300 b4 23 f1 3d 19 32 01 3e 7b f9 83 3e 0b ad 87 bd
       0.11774388 0.12616767 0.25776276 -0.06624802
000310 fa f4 c2 3e c5 6b e4 3e a6 cd bf 3e 77 77 a0 3b
       0.38077527 0.44613472 0.37461585 0.004897054
000320 e9 e6 74 3d 0b 53 2a be 58 06 4a 3e d9 35 19 3d
       0.059790526 -0.16633241 0.19728982 0.03740487
000330 3a f2 30 3e 44 16 da bc 4b d3 c5 bd 34 e9 9a bd
       0.17279902 -0.026621945 -0.096594416 -0.07564011
000340 47 64 01 3e c5 59 8a 3e 94 fd 4e 3c 09 20 38 bd
       0.12635909 0.27021614 0.0126337 -0.044952426
000350 ff 61 97 be c4 ae 4f 3e 28 70 be 3e c0 2f f0 3d
       -0.29566953 0.20281512 0.37194943 0.117278576
000360 03 b4 35 3d 20 36 74 be ae c0 1b bd 26 0b b6 3e
       0.044361126 -0.23848772 -0.03802555 0.3555538
000370 bf 3d bd be c1 3f 2b bd 9b f5 b9 be b8 47 8f be
       -0.3696117 -0.041808847 -0.36320195 -0.27984405
000380 a3 f5 d1 3d 44 7a d2 bd 89 b8 6f bc 43 2c 88 3e
       0.102519296 -0.102772266 -0.014631399 0.2659627
000390 78 01 b8 3e c2 67 c2 3e 4c 90 23 bd 3e a4 1e be
       0.3593862 0.37969786 -0.039932534 -0.15492341
0003a0 89 9d a7 3e e6 ae 28 3e 2d e2 06 3e 97 61 1b bd
       0.32737377 0.16472968 0.13172217 -0.037934866
0003b0 31 ad 37 be 15 2e 27 3e b5 3d 81 3e eb 9b 75 bc
       -0.17937161 0.16326173 0.2524239 -0.014990787
0003c0 99 13 9d be 9b ed 26 be cc dc 47 bd a2 ef b7 bc
       -0.30679014 -0.16301577 -0.048794553 -0.022453133
0003d0 d8 25 ef bd d7 2d 47 be 12 ae e6 be e6 1b d3 be
       -0.1167714 -0.1945108 -0.4505468 -0.41232222
0003e0 cb 45 9d be 77 32 36 bc
       -0.3071731 -0.01112043

conv1.bias f4 [10]
000000 46 4a 18 bd 01 5f 11 be e0 c8 f9 bd 91 82 b3 3c
       -0.037180208 -0.14196397 -0.12196517 0.021912845
000010 98 d4 0a 3e 78 91 84 bd ba 68 d2 3d 32 7c 1a 3d
       0.1355766 -0.064730585 0.10273881 0.037716098
000020 0a 59 b7 ba 58 8e 1e bc
       -0.0013988328 -0.009677492

conv2.weight f4 [20, 10, 5, 5]
000000 5e 2f 92 3d 84 79 8b 3d a5 ff 00 be 09 fe 1e bd
       0.07137941 0.06810287 -0.1259752 -0.038816486
000010 95 a0 ee 3b 3d 95 36 bd 8d 55 49 bb 08 40 05 be
       0.0072823265 -0.04457592 -0.0030721158 -0.13012707
000020 cc 42 96 bc 47 a3 44 bc c5 ff 5d 3c a0 c1 4c bc
       -0.018342398 -0.012001819 0.01354975 -0.012497336
000030 17 b7 ac bd c0 fe 81 bc ef 6d 31 bc 40 ff 03 be
       -0.08433359 -0.015868545 -0.010829433 -0.12890339
000040 8d 60 6b bd fd f9 0e 3d 3f 3c 0e 3b 4e 54 62 3d
       -0.057465125 0.034906376 0.002170339 0.05525618
000050 bb ab cf bd 36 3f 4a bd bd 0d fa 3c d0 9a 70 3c
       -0.10140177 -0.04937669 0.030524129 0.014685348
000060 b2 b5 c5 bd 72 47 bd bc 60 92 0f be de bb 1e be
       -0.09653796 -0.023105357 -0.14020681 -0.15501353
000070 6a db 7c bd d9 74 91 3c ff 24 ae bd a5 fe 51 be
       -0.061732687 0.017755913 -0.0850315 -0.20507295
000080 82 ee 96 bd 33 1f 2c 3d a9 5b 5e 3c 7a 5f 23 be
       -0.073697105 0.04202194 0.013571658 -0.1595439
000090 3b 3c 47 bd 57 1d 96 3c 3e 6f c9 3c f6 a1 44 bb
       -0.048641425 0.018324537 0.024589177 -0.0030003763
0000a0 0a f5 01 be a3 f7 51 3c b4 39 e5 3d ec 6d 97 3d
       -0.12691131 0.012815389 0.111926466 0.07394013
0000b0 26 fd ca 3c 62 52 38 bc 6b de 89 3c 69 93 07 3d
       0.024778914 -0.01125011 0.01682969 0.033099566
0000c0 a8 3d 6e bd e8 7e bf bc 78 3e 7a 3d 6c 6a 9a bd
       -0.05816427 -0.023375943 0.06109473 -0.075398296
0000d0 ec d3 3a bd 05 c7 2a 3d 5b 9a d5 3d 01 ea 90 bd
       -0.04561226 0.041693706 0.104298316 -0.07075883
0000e0 cf b4 25 3d b3 6f 89 3d f4 49 94 3d d1 ed 3a 3d
       0.040455636 0.06710758 0.07240668 0.045636956
0000f0 79 d5 64 3b a0 2f 54 3d 08 ac 0c 3d 43 69 5c 3b
       0.0034917279 0.05180323 0.03434375 0.0033632077
000100 51 24 e9 bb 0c 85 72 3c 57 e1 86 bc b6 c4 e6 bb
       -0.007114925 0.014802229 -0.016464872 -0.0070424927
000110 83 74 03 be 58 ca ae bd 97 8b b9 3d 1b 28 d5 bc
       -0.12837414 -0.08534688 0.09059828 -0.0260201
000120 4b ce 83 bd 37 20 9c bd 15 b3 bd bc 7f 0d fe 3c
       -0.06435832 -0.07623332 -0.023156682 0.031012295
000130 bb 9d 80 bd 74 a3 79 bd 10 6a 5f bc 93 0d 7a bb
       -0.06280085 -0.060946897 -0.013636127 -0.0038155064
000140 7d 9b ce bc 60 25 68 bd 8f 2a b8 bd 8a 75 ea bb
       -0.025220627 -0.05667627 -0.089924924 -0.007155125
000150 b9 a3 89 bc 7f f7 be bb 27 9c 92 bd 29 95 79 bd
       -0.016801702 -0.0058278437 -0.0715869 -0.060933266
000160 c6 4f d6 bd f0 73 89 bd 36 b0 b2 3d 3c 24 4c 3d
       -0.10464434 -0.067115664 0.08725016 0.049839243
000170 34 97 43 bd f2 c6 9b bd 5c a3 4d 3d e1 84 82 3a
       -0.04775162 -0.07606305 0.05020462 0.0009957814
000180 ef 96 ca 3d 23 8d bc 3d e3 99 50 3d 99 81 7a bc
       0.098920695 0.09206607 0.050928008 -0.015289688
000190 c0 ea 91 3d 9e f3 6d bd 97 5a 69 3d 53 07 c4 3d
       0.07124853 -0.05809366 0.05697116 0.095717095
0001a0 36 11 22 3e 53 7f 7f bc 6d c7 66 bd cd b4 c1 3b
       0.15826878 -0.015594321 -0.05634253 0.0059114457
0001b0 13 88 e6 3d 12 ee 26 3d ae d4 24 be 36 20 18 3d
       0.11256423 0.040754385 -0.16096756 0.037140094
0001c0 86 23 3d 3d a2 ac 67 3d ee fc dd 3c c0 47 25 be
       0.046176456 0.05656112 0.027098145 -0.16140652
0001d0 d5 1b 5e bd 94 4c d1 3d b9 07 8f 3d 68 c8 9b bc
       -0.05422576 0.10219684 0.06983895 -0.01901646
0001e0 ca 58 89 bd a1 81 0e be 0d 9e e0 bd a2 14 da bd
       -0.06706388 -0.13916637 -0.10967646 -0.10648467
0001f0 af 7a b7 bd 23 8a 36 3d d0 d9 d2 3c f0 a6 5f 3d
       -0.08958947 0.04456533 0.025738627 0.054602563
000200 7e 57 b6 3d 41 69 38 3d 33 df fc bc 40 3f cb 3d
       0.089034066 0.045022253 -0.030868148 0.09924173
000210 e9 77 ed 3d 08 e4 d0 3d 6a 4d c6 3d c3 32 b3 3b
       0.11595137 0.101997435 0.09682734 0.0054686978
000220 70 ae 2a 3e 2f 17 e1 3d b3 a7 cc 3d 37 54 20 3c
       0.16668105 0.1099075 0.099929236 0.009785703
000230 3e 71 44 bd 5f 9b 74 3d b4 f3 92 3d 02 69 b8 bc
       -0.04795956 0.059718486 0.07175389 -0.02251101
000240 ca ff ba bd e7 c7 60 bd 7e 94 9e bd d5 0a dd bd
       -0.09130819 -0.05487814 -0.077431664 -0.10793082
000250 80 e7 42 3b 80 2a 11 bd 08 d4 82 bb 8a 54 8e bc
       0.0029740036 -0.03544092 -0.0039925613 -0.017374296
000260 49 7e 51 3c 93 24 8e bc 50 36 1f 3d f6 5a 36 3d
       0.012786456 -0.017351424 0.038870156 0.04452034
000270 ad 13 85 bd 90 5d a6 3d 23 38 dc bb 4e dd 5e bd
       -0.064978935 0.081233144 -0.006720559 -0.05441027
000280 85 5f d3 bc 94 95 84 3d e3 52 3b 3d 40 22 98 3d
       -0.025802383 0.06473842 0.045733344 0.07428408
000290 fd 4f 1d bd 30 6a be 3c 20 90 8c bd fa 8a e7 bc
       -0.03840636 0.023243994 -0.06863427 -0.028264511
0002a0 6b e0 ac 3b 59 6f 98 bd 45 e3 4f 3d c9 f4 36 bd
       0.005275776 -0.07443113 0.05075385 -0.04466704
0002b0 a5 6b 02 3c 60 fd b1 3c 9b fb 1a bd 43 79 34 bd
       0.007960235 0.021727264 -0.037837606 -0.044060957
0002c0 a6 0d 9c 3d ea 41 96 bd 76 2a 87 bd f8 cf a2 3c
       0.07619791 -0.07336791 -0.06599896 0.019874558
0002d0 d2 81 41 3c 44 5b f3 3d 52 ee 1d be bd 99 9b bd
       0.011810737 0.11882642 -0.15422943 -0.075976826
0002e0 4e c2 20 3a 2d e0 36 bd 39 fb 95 bd 6f f6 20 bd
       0.0006132469 -0.044647384 -0.073233075 -0.039297517
0002f0 ce 17 c6 bd 43 6f 17 bc 53 87 3e bc c4 f2 91 bd
       -0.09672509 -0.009242835 -0.0116289435 -0.07126382
000300 e6 2f 28 bd 76 93 ea 3b a5 c6 b3 3d 32 db e7 3d
       -0.041061305 0.007158692 0.08778123 0.11321105
000310 5e 9f a2 bc ae cf 93 bd 72 13 b7 bc a5 39 d8 bd
       -0.019851383 -0.07217346 -0.02234814 -0.1055787
000320 ea 0b f0 bb 52 ba 3e bd 79 74 53 bb 5f 87 33 bc
       -0.007325639 -0.046564408 -0.0032265468 -0.010957568
000330 eb 4a 59 bc cd 23 ad bb 27 c8 ed bc b1 35 49 bc
       -0.013262491 -0.005283809 -0.029026104 -0.012280867
000340 e2 25 ee 3b c8 af 4e bb e3 ef b6 3c 03 9f fe 3a
       0.0072676996 -0.003153788 0.022331184 0.0019426051
000350 79 83 c9 3d 0a 3a a1 3d 74 4d 64 3d 72 31 51 3d
       0.098395295 0.07872398 0.055737928 0.051072545
000360 e5 fe 92 bc 79 73 8b 3d 85 06 0a 3d 93 21 9c bd
       -0.017943809 0.06809134 0.033697624 -0.07623591
000370 73 be bb bd 8b e4 d2 bd 04 19 96 bc f9 23 90 bd
       -0.09167185 -0.10297497 -0.018322475 -0.07038111
000380 f2 e7 59 bd 41 3b d0 3d 1f bb 59 bd 70 c9 24 3b
       -0.053199716 0.10167552 -0.05315697 0.002514448
000390 45 b6 48 bd f0 c6 e3 bc f3 f0 3d 3d 25 48 c6 bc
       -0.04900195 -0.027804822 0.046372365 -0.024204323
0003a0 2b f2 10 bc a1 9d 08 be 7c 1a ee ba 87 96 aa 3d
       -0.0088468 -0.1334138 -0.0018165852 0.08329492
0003b0 8a 52 2a 3d a1 41 a4 bd a3 bd 8c bd d4 33 f3 3c
       0.04158262 -0.0802033 -0.06872108 0.0296878
0003c0 f5 be e1 3c 24 91 a8 3b f9 07 a8 ba 0b c5 e6 3c
       0.027556876 0.0051442552 -0.0012819759 0.02817013
0003d0 73 45 de 3c fe 17 09 be 82 64 85 bd 62 48 d0 bc
       0.027132725 -0.13388059 -0.06513311 -0.02542514
0003e0 aa f8 6c 3d 94 1c 3d bd 8e 21 00 bc 0d c6 3c 3d
       0.057854332 -0.046169832 -0.0078205 0.046087313
0003f0 29 cb 1c bd d4 9f 35 3d 18 62 93 3d b3 a8 af bd
       -0.038279686 0.044341877 0.07196444 -0.08577099

conv2.bias f4 [20]
000000 91 93 fe 3b 4f 8b 04 bd 11 05 5a 3d e9 9e 85 bd
       0.007769056 -0.032359418 0.053227488 -0.0652445
000010 c1 84 e7 bb 5a dc 07 bd 9b 34 4e bd c0 da c5 ba
       -0.007065386 -0.033169128 -0.050343137 -0.00150951
000020 13 43 93 bd 93 32 00 bd 79 2a 25 3d 20 3e 9f bd
       -0.07190528 -0.03129823 0.04032371 -0.07775521
000030 cf 5a 86 bd ae 90 80 3d 08 19 a3 bc 3f ac aa bd
       -0.06560289 0.062775955 -0.019909397 -0.083336346
000040 d7 6e b3 bc 01 9e bd bd e2 0d 87 bd 23 b5 e4 3c
       -0.021903438 -0.092586525 -0.06594445 0.027918404

fc1.weight f4 [50, 320]
000000 02 b2 01 be d6 19 01 bd 8c cb 03 3c 11 a1 54 bd
       -0.12665561 -0.03151878 0.008044135 -0.051911417
000010 17 09 bc 3c be dd a2 bc d5 15 a1 3c d2 66 53 bc
       0.022953553 -0.019881126 0.01966373 -0.012902932
000020 3d 4c 11 3d f7 44 50 3d 17 55 fb 3d a9 de b0 3d
       0.035473097 0.05084702 0.12272089 0.08636219
000030 30 d9 10 3a 7a e9 a7 bd 4c d5 f6 3c 0f 98 76 3d
       0.00055255275 -0.08198829 0.030131005 0.060203608
000040 90 e3 ac bc 16 9d 50 3d 3a c7 9b bc e3 11 4c bc
       -0.021104604 0.05093106 -0.019015897 -0.012455436
000050 65 99 e8 3c 14 09 32 3c 3e ea b5 3b b0 60 c7 bd
       0.028393457 0.010866422 0.0055516055 -0.097352386
000060 d0 b5 c8 bc 79 b8 8e bd ab 8b d8 3c 89 31 0f 3d
       -0.024500757 -0.06968779 0.026433786 0.03495935
000070 56 88 a1 bd 67 12 28 bd 9c f5 44 3d e3 b2 71 3d
       -0.07887332 -0.041033175 0.048085794 0.05900849
000080 4c 54 54 bd 64 9c 03 bc 20 41 00 bd b7 31 b7 bd
       -0.051838204 -0.008032892 -0.031312108 -0.08945029
000090 83 61 4b bd ef 1c 8c bc ed 7e d6 3c 1e b7 1c 3c
       -0.04965354 -0.01710364 0.02618357 0.009565143
0000a0 b3 bd 4f bd a4 ad cc 3c 33 3e 88 3a aa a0 a7 bc
       -0.05071802 0.024985142 0.0010394513 -0.020462353
0000b0 45 b0 37 bc d6 bd 9c bc d7 95 03 3d 0e 5c 40 bc
       -0.0112114595 -0.01913349 0.03212532 -0.011740698
0000c0 8d b7 82 3c f4 5b 0a bd 91 83 9c 3a dd 53 5c 3d
       0.015956664 -0.0337791 0.0011941065 0.053790916
0000d0 c5 c8 bb bc 16 02 f4 bc d7 2a 8e bd 76 30 70 3d
       -0.022922883 -0.02978615 -0.06941765 0.058639966
0000e0 5e 04 1c bd f8 98 02 be d3 4e 84 bd a4 42 a3 bd
       -0.038090102 -0.12753665 -0.06460347 -0.07971695
0000f0 e4 3b 12 bd be 69 c2 bc 12 14 83 bd 61 fe 0d be
       -0.035701647 -0.023732062 -0.064003125 -0.13866569
000100 6d b4 56 bc 01 c1 d7 bc 77 28 46 bd 43 d7 73 bd
       -0.01310454 -0.026337149 -0.048378434 -0.05953146
000110 4a 4c 35 38 34 f2 e2 bb 81 2a 02 bd f3 82 df bc
       4.3224813e-05 -0.0069258455 -0.031778816 -0.027284121
000120 81 c0 95 3c f3 79 2c bd f2 47 34 3d 9d d4 a5 3d
       0.01828027 -0.042108487 0.044013925 0.080971934
000130 3e a6 de bc 79 2f 43 3d 14 9b eb 3c e5 31 19 3c
       -0.02717888 0.047652695 0.02876047 0.009350275
000140 29 36 8b 3c 2f ef 39 3d 10 17 93 bc 07 53 1e be
       0.016993599 0.04539412 -0.017955333 -0.1546136
000150 1b 0c aa 3c cf 37 d5 3a 31 68 59 bd f2 bb 5f bc
       0.020757725 0.0016267243 -0.05307788 -0.0136556495
000160 45 6a 0e bd 23 c1 28 bc 36 cd 81 bc 40 5c 77 3d
       -0.034769315 -0.010299954 -0.015844923 0.06039071
000170 6f 9c 54 bc 37 48 e7 3d 13 fe 97 3d cb 84 89 3c
       -0.01297675 0.11293071 0.07421508 0.016786953
000180 88 f7 74 3c a2 8d dd 3b f7 8d fc 3c 78 4e a1 3d
       0.014951594 0.0067612687 0.030829413 0.07876295
000190 28 60 a0 3c 79 0c 4f bd 51 ad fc bc 71 2a c3 3c
       0.0195771 -0.050549004 -0.030844362 0.023823949
0001a0 18 3c 1c bd 33 8c 4e bd 3f a0 12 bc 13 6b 8b bd
       -0.038143247 -0.050426673 -0.008949338 -0.06807532
0001b0 f3 d1 c7 bc e4 74 70 bd 75 99 6b bd 41 39 80 bd
       -0.024392104 -0.058705226 -0.057519395 -0.0626092
0001c0 95 50 25 bc ff e1 09 bd fb c8 0f 3d 00 b3 58 bd
       -0.010090013 -0.033662792 0.03510378 -0.052905083
0001d0 7a 8f fa 3c 1a fa aa 3c 0a f8 c7 bb b0 7f 3c bc
       0.030585993 0.02087121 -0.0061025666 -0.011505052
0001e0 f1 19 a7 3c fc 5d b7 ba 29 74 bb bd 6a 88 ac bc
       0.020398112 -0.0013989802 -0.09153015 -0.021061141
0001f0 6c 04 ab 3c 6a f9 97 bd 84 4e be 3b da fe 13 3d
       0.020876132 -0.07420619 0.0058076996 0.036131717
000200 4b 78 9f bd e5 2d 4b bc 91 7f 38 3d 52 ce 46 bd
       -0.07786616 -0.012401079 0.04504353 -0.048536606
000210 6d 35 17 bd 4c 16 2a bb 39 70 5e 3d 9d 22 3f 3c
       -0.036916185 -0.0025953231 0.054306243 0.011665967
000220 d2 ac 35 3c fc 62 5f 3c 10 d7 16 bd df 1a f0 bb
       0.011088567 0.01363444 -0.036826193 -0.007327422
000230 7a ae f6 bc 8b 1a 81 3d b1 06 a9 bb c3 7a 89 bd
       -0.030112494 0.06303891 -0.0051582684 -0.06712868
000240 d7 f1 1e bd f1 c9 cf bd 2f 56 86 bd 5f 13 03 bd
       -0.038804855 -0.10145939 -0.06559407 -0.032000896
000250 88 46 ce 3d 90 0a a0 3c 37 d9 60 bc 54 63 87 bd
       0.100720465 0.019536287 -0.013723663 -0.06610742
000260 90 25 58 3d bc 16 c7 bc fa 92 19 bc f2 7a 8e 3d
       0.052770197 -0.024302833 -0.009373421 0.06957044
000270 10 17 17 3d 86 be ef 3d 62 b2 11 3c 6b 93 16 3d
       0.03688723 0.11706261 0.008892627 0.036761682
000280 c3 7b dc bc 8c 9a 0a bd 7e af 59 bd 5e 0a e1 bc
       -0.026914483 -0.033838794 -0.053145878 -0.027470764
000290 de 07 5f 3c 3a 6f 72 bd d6 dd 88 3d b2 0c 1f 3d
       0.0136127155 -0.059188105 0.06682937 0.038830467
0002a0 e6 20 99 bd ae df bb bc ee b6 a6 3c 9e c0 bd 3d
       -0.07476978 -0.022933807 0.0203509 0.092652544
0002b0 87 f8 67 3c 59 96 f2 3c 56 99 31 3d c9 51 c4 bc
       0.014158375 0.029612707 0.043359123 -0.02396478
0002c0 c6 0f 1d bd bf 0a f7 bd 14 98 cc bd 03 7f b1 bd
       -0.03834512 -0.120625965 -0.09989944 -0.08666804
0002d0 c9 39 df 3b c0 87 87 3d 02 a2 91 3c 18 02 8a bd
       0.0068123084 0.06617689 0.017777447 -0.067386806
0002e0 e7 a9 b0 3d 8a 16 4b bc 9d f6 8e bc c2 03 d2 3b
       0.08626156 -0.01239551 -0.017451579 0.0064091394
0002f0 2b 48 ed 3b 74 40 24 3d 66 8e b7 3d c3 25 aa 3d
       0.007241269 0.04010053 0.08962707 0.08307984
000300 34 8b 35 bd ad b9 a8 3c bb 0d a8 3b 40 ff ac 3c
       -0.044322208 0.02059635 0.00512859 0.021117806
000310 7d 10 be 3b 2e c1 1f b9 4b c3 da 3c 59 8f 79 3c
       0.0058003054 -0.00015235387 0.026704451 0.015231931
000320 8b 89 6e bd 5e cd ac bd 1f 82 d2 3c da 87 27 3d
       -0.05823664 -0.08437608 0.025696812 0.040901043
000330 25 51 86 3c a6 77 fc bc 47 74 aa 3c 56 d8 38 bc
       0.016396115 -0.030818772 0.020807398 -0.011282047
000340 78 51 3b bb c2 ce a3 3d 0c fc 34 3d 2a d8 1e 3c
       -0.0028582495 0.0799842 0.044185683 0.009695092
000350 e5 d4 1f 3c 44 c5 dd bc 8e aa a2 bc dd 40 89 bd
       0.009755348 -0.027071603 -0.019856717 -0.06701825
000360 93 f2 04 be 79 65 0f 3d 19 4a 68 bc a6 e9 f2 bd
       -0.1298316 0.03500888 -0.0141778225 -0.11860971
000370 89 42 05 be 40 7e d1 3c 61 95 c7 3b 6e cf 1e be
       -0.13013662 0.025572896 0.0060908054 -0.15508816
000380 2f 9e 4b 3c 64 95 5a bd 89 d5 10 be 9d 8e ee bd
       0.012427851 -0.053365126 -0.14143957 -0.11648295
000390 83 b0 0a 3d 85 21 36 bd ba f6 1d bd a4 c8 bd 3c
       0.03385974 -0.04446556 -0.038565375 0.023166962
0003a0 21 d8 20 bc 3b 72 aa 3d a7 6a 29 3d e1 e8 d3 3c
       -0.009817154 0.08322569 0.041361477 0.025867881
0003b0 00 1c 54 3d 3f d0 1a 3d c4 5d 47 bc da 7c d4 3b
       0.051784515 0.037796255 -0.012168352 0.00648461
0003c0 45 9a 26 3c b9 2a a3 3d 83 8d 11 3c 22 5c 8d bd
       0.010168617 0.07967133 0.008883837 -0.069023386
0003d0 5f 13 30 bd c8 32 03 bb db 14 d3 bb 5b d3 14 3d
       -0.042987224 -0.0020019282 -0.006441695 0.036334377
0003e0 fa a3 d2 3c ea dd 81 bc e4 c8 09 3b 72 60 c8 bc
       0.025712956 -0.015852887 0.002102428 -0.024460051
0003f0 93 90 54 3b d7 08 97 bd 48 e0 44 bd 3d 2b 5b bd
       0.0032434806 -0.07374733 -0.048065454 -0.053508032

fc1.bias f4 [50]
000000 03 e2 75 3d 1f 38 83 3d 9c 74 e8 3c 1d dd 0c ba
       0.060029995 0.064071886 0.028375916 -0.00053735246
000010 b7 76 f3 3c d7 7f 18 3b e3 0b 5f 3c eb ad cb 3a
       0.029719694 0.0023269558 0.013613674 0.0015539502
000020 e6 36 0d 3d 43 b0 be 3c e8 9c 03 3d f1 2c 9b 3d
       0.034476183 0.023277408 0.03213206 0.07576931
000030 da d6 57 bc 3b 5b 70 3c 5f 62 31 3b 79 88 0b bd
       -0.013173783 0.014670189 0.002706669 -0.034065697
000040 64 dd b0 3d 81 94 54 3d dc 6b ac 3d eb 89 ca ba
       0.08635977 0.051899437 0.0841901 -0.001545248
000050 2e 5e 5d 3d 81 bf cf 3c f4 eb be bc 3a 3f 4c 3d
       0.054044895 0.02535987 -0.02330587 0.049864985
000060 09 63 a5 3d 15 9b 2f bb 9e 45 b8 3d d6 72 8d 3b
       0.0807553 -0.0026795317 0.089976534 0.004316668
000070 50 ac 86 bc 68 27 0e bc 96 41 11 bc a5 bb 39 3d
       -0.016439587 -0.008676387 -0.008865735 0.045344967
000080 8f e2 96 3c 40 af e7 bc bd 0c 11 bd 41 2c cc 3d
       0.018418578 -0.028281808 -0.03541254 0.09969378
000090 79 7a 29 3d 24 e0 56 bd ee 56 37 3d 7e ff 6e bb
       0.041376565 -0.05245985 0.044760637 -0.0036468203
0000a0 e4 a4 2f 3d a9 0c d8 3d 22 37 39 3d 2a 95 a8 bc
       0.04288186 0.1054929 0.045218594 -0.02057894
0000b0 98 64 ee 3a 8e 02 4e 3d 3b 3c fd bc c0 5b f3 bc
       0.0018187938 0.050295405 -0.03091251 -0.029706836
0000c0 d3 c6 75 3d bf e9 96 3d
       0.060004067 0.07368802

fc2.weight f4 [10, 50]
000000 a3 ed 8c 3e 30 18 22 be cb 03 55 3e f1 90 3d 3e
       0.27525052 -0.1582954 0.20802228 0.18512322
000010 21 3b e7 bd 74 75 0f 3c 1e 76 3a be e0 6e 2b be
       -0.11290575 0.00875603 -0.1820912 -0.16741514
000020 1f 59 f9 bd df bb 62 be 75 20 75 be ae a8 0e be
       -0.121752016 -0.2214198 -0.23938163 -0.13931534
000030 34 c5 ea bd a0 9f 84 3e 82 93 8a 3e e7 4a 3e 3e
       -0.11463395 0.25903034 0.27065665 0.1858326
000040 ee 73 a1 3c 04 f2 4a 3e c6 46 63 3e 45 a9 1c 3e
       0.0197086 0.19818884 0.22194967 0.15298946
000050 a8 0a 07 be 1c 90 1a be 03 ce 81 bd f6 e7 8c be
       -0.13187659 -0.15094036 -0.06338122 -0.27520722
000060 12 69 e5 bd c5 5a 8d be 9d 60 8c be 94 7c 7e be
       -0.11201681 -0.27608314 -0.2741746 -0.2485221
000070 c0 45 b7 bd de ee 48 3e 5b 9d 3c be 6c 0c 2f be
       -0.08948851 0.1962237 -0.18419401 -0.17094582
000080 de fd 76 3e 98 88 ec 3d 58 62 04 be a2 2c 66 3e
       0.2412028 0.11549491 -0.1292814 0.22477964
000090 f9 a1 13 3e 0e cf 49 3d fb 53 4e bd b9 e2 37 be
       0.14417256 0.04926973 -0.05037306 -0.17957582
0000a0 d6 d8 11 be 92 ee 6c be 75 36 0a bc 6c a1 16 be
       -0.14242873 -0.23137882 -0.008435835 -0.14710015
0000b0 1e d2 cb bd 65 8a 87 3e 24 50 f0 bd 00 69 ae bd
       -0.09952186 0.26472774 -0.117340356 -0.08516121
0000c0 60 e7 ac bd da 84 f9 3d c1 e2 7c bd 19 b4 3b 3e
       -0.08442569 0.121835425 -0.061739687 0.1833042
0000d0 59 e3 66 be 6a 10 c9 bd dd aa 63 3e ce 00 2f 3e
       -0.22547664 -0.09817584 0.22233148 0.1709015
0000e0 a4 06 67 be 39 7d 1b 3e 77 2d 11 bd f1 c3 40 be
       -0.22561127 0.15184487 -0.03544375 -0.18824746
0000f0 71 fc 21 3e 2f 9d 69 3e 05 7a 1c be e8 30 50 be
       0.15818955 0.22813867 -0.15280922 -0.20331156
000100 4c 76 85 bd a1 66 63 be 0e db 04 3e 3f 3a 11 be
       -0.06516704 -0.22207119 0.12974188 -0.14182375
000110 f0 d2 67 be 2c fa 8c 3d 8d 42 63 be 86 b8 03 3e
       -0.2263906 0.06883654 -0.22193356 0.12863359
000120 81 74 63 3e 62 21 4e 3e b3 a3 59 3e 8a 66 72 be
       0.22212411 0.20129922 0.21253853 -0.23671928
000130 78 00 92 be b8 5d 54 3e 5e 7b 3c 3e 4f 55 b8 bd
       -0.28515983 0.20738876 0.18406436 -0.09000646
000140 9f bc 6a 3e 3c df 2e be a4 59 26 be 34 84 8b be
       0.22923516 -0.17077345 -0.16245133 -0.272493
000150 17 05 6c 3e b2 d7 60 bc 97 cd fe bd 23 21 38 be
       0.23048817 -0.013723301 -0.12441557 -0.1798139
000160 80 bf 17 3e 57 85 96 3e ef 45 08 bd 63 2a 2c 3e
       0.14819145 0.29398605 -0.03326982 0.16813044
000170 75 c1 2c be 09 a4 65 be 9e 8a 21 3e 39 45 21 be
       -0.16870673 -0.22425856 0.15775535 -0.15749063
000180 8c 40 32 be 8d 6e 69 3e 1e 49 92 be ec ac c4 3d
       -0.17407435 0.22796078 -0.2857141 0.09603295
000190 95 58 f3 bc 02 09 36 bd 7e b4 df bc aa c2 84 bc
       -0.029705325 -0.044442184 -0.027307745 -0.016206104
0001a0 83 f0 f4 bd 0d ff 3d 3e 6f 8d 23 3e 98 ad 27 3e
       -0.119599365 0.18554325 0.15971921 0.16374815
0001b0 c5 b7 60 3e 9d 70 05 3e fe c9 05 be 2c 7c 89 3e
       0.21945103 0.1303124 -0.13065335 0.26852548
0001c0 25 80 87 3e cd ea 76 3e 43 c5 70 3e cc d2 19 3e
       0.26464954 0.24113007 0.2351275 0.15021819
0001d0 83 8f 87 bd 6e d2 1e be 77 4e 52 be c8 01 40 be
       -0.066191696 -0.1550996 -0.20537744 -0.1875068
0001e0 fc c4 f6 bd 03 98 69 3d fe 62 b2 bd 4f 67 28 be
       -0.120492905 0.057029735 -0.087102875 -0.16445659
0001f0 0d fd ef bd c0 a6 03 be 16 5e 6a be 8c b6 8d bd
       -0.117181875 -0.12856579 -0.22887453 -0.06919584
000200 60 54 77 be ac c7 66 bd 29 04 17 be d7 a5 b1 bd
       -0.2415328 -0.056342766 -0.1474768 -0.086742096
000210 51 ed af 3d c4 d0 55 be 60 72 67 3e 7d 75 76 3e
       0.085901864 -0.20880419 0.22602224 0.24068256
000220 1b 1b 8e bc 76 07 0f bd 8f 61 35 3e 69 d4 52 3d
       -0.01734691 -0.034919225 0.17712997 0.0514721
000230 69 e7 84 3e 23 1e 6f 3e 4c e5 0d be d9 d2 85 bd
       0.25957802 0.2335134 -0.13857001 -0.065343566
000240 ed c3 14 3e 61 a6 45 3e dd d7 16 bd 02 bc 69 3e
       0.14527865 0.1930175 -0.036826957 0.22825626
000250 7e 67 34 be 79 1f 17 3e 1f 93 9c bd 62 55 5b 3e
       -0.17617604 0.147581 -0.076452486 0.2141929
000260 23 0b 2d 3e 7c e8 38 be ff 54 ad bd e4 ae 62 be
       0.1689878 -0.18057436 -0.08463477 -0.22137028
000270 c7 47 0e 3e c3 7f 37 3e bf 6e 34 ba 6b ce 01 3e
       0.13894568 0.17919831 -0.00068829575 0.12676398
000280 37 28 bc bd 6c 35 8f 3e ad 48 08 be 6a 34 d2 bd
       -0.09187358 0.27970445 -0.13308974 -0.102639034
000290 98 10 63 bc 5a fc e6 bd 5a 35 e6 bd e7 11 56 3e
       -0.013858937 -0.11278601 -0.11240645 0.20905267
0002a0 d4 07 f0 bd c8 78 1e 3e d3 dd 40 3e 3c 54 54 3e
       -0.11720243 0.15475762 0.18834619 0.20735258
0002b0 c2 ad 9b 3d 9c 77 0a be 30 ab 7c be b6 c0 fe bd
       0.07601501 -0.1352219 -0.24674678 -0.124391004
0002c0 d1 b5 33 3e 69 03 f0 bd a5 b9 79 3e 7b e8 f9 bd
       0.17549826 -0.117194004 0.24387224 -0.12202545
0002d0 24 0c a3 be cd fd 70 3e 95 6b 4b be bb c6 7f 3e
       -0.318452 0.23534317 -0.19865258 0.24978153
0002e0 9d 55 20 3d 2a ca 14 bd 06 a7 4e 3e 89 4d 0d bd
       0.039144147 -0.03632561 0.20180902 -0.03449777
0002f0 b5 ba 74 be 30 07 0a be 61 f7 53 3e a5 3d 82 3e
       -0.23899348 -0.13479304 0.20699836 0.25437656
000300 bb 7b 2d be 06 ea 1a 3e 29 03 1f 3e 55 5c 5d bd
       -0.1694173 0.15128335 0.15528549 -0.054043133
000310 75 07 ea bd e8 a7 2e 3b ab 31 81 bd c4 1d f2 3d
       -0.114272036 0.0026650373 -0.063083015 0.118220836
000320 54 78 e7 bd a9 1f 82 3d a8 f3 1a be 0e 45 d6 3d
       -0.11302248 0.06353695 -0.1513201 0.1046239
000330 80 86 3f 3d a9 d4 47 3e 1e c7 26 3e 7c 85 4e be
       0.04675913 0.19514717 0.16286895 -0.20168108
000340 9f 96 1e be 9d 66 30 be c0 d3 75 3e fb 59 f3 bc
       -0.15487145 -0.17226644 0.24006557 -0.029705992
000350 75 ec 80 3e c6 ec 39 be a6 a3 1b 3b e5 7a 31 3e
       0.25180402 -0.18156728 0.0023748665 0.17332037
000360 0d 9b c1 3b 2a 14 66 be 1c 90 3f be c3 5c 46 be
       0.005908376 -0.2246863 -0.18707317 -0.19371323
000370 0f 31 0d be fe 3c 31 be cd 47 80 3e 3b 6c 70 3e
       -0.13788246 -0.17308423 0.2505478 0.23478787
000380 31 b9 2d 3e 06 12 7f 3e b1 f5 c5 3d a0 b0 48 3e
       0.16965176 0.24909219 0.096660025 0.19598627
000390 e5 93 84 bc 51 19 e3 bd 33 98 18 3e d9 0b 95 3e
       -0.016183803 -0.11088813 0.1490181 0.29110602
0003a0 f0 e0 42 be 8e 3e 71 be 58 06 4a be b0 06 4c be
       -0.1903112 -0.23559019 -0.19728982 -0.19924426
0003b0 9d fa 20 be 3c 75 b1 3e e4 75 5a 3e a6 64 af bd
       -0.15720601 0.34659755 0.21334034 -0.08564119
0003c0 78 80 77 be 1d 6e 2e be 00 c9 36 3e 7c 16 25 3d
       -0.241701 -0.17034192 0.17850113 0.040304646
0003d0 18 01 42 be 31 e5 94 bd d4 8b e1 bd 9d ad 2a be
       -0.1894573 -0.07270277 -0.11012998 -0.1666779
0003e0 f2 7e 88 3e e2 d5 65 be 8b 58 8d bb 9f 88 ba bd
       0.26659352 -0.22444871 -0.0043135337 -0.0910809
0003f0 96 a5 4f 3c d2 7b 8c be 06 86 ed 3b 85 ce e5 bd
       0.012673756 -0.27438217 0.007248643 -0.11221031

fc2.bias f4 [10]
000000 4d a0 4e 3d 61 12 a4 3d 1b 04 02 be ed 1b 1b be
       0.050445843 0.08011318 -0.12696879 -0.15147372
000010 a0 32 3c 3c 91 f2 86 3d 7d 1f 89 be c6 71 28 be
       0.011486679 0.065892346 -0.26781836 -0.16449651
000020 8d 44 3b 3e d8 67 b0 3c
       0.18287869 0.021533892
